…
    eigen_value: 905.708
    eigen_value: 188.496
    eigen_vector_component: 0.557994
    eigen_vector_component: 0.577479
    eigen_vector_component: 0.595954
    eigen_vector_component: 0.706345
    eigen_vector_component: 0.0464284
    eigen_vector_component: -0.706343
    eigen_vector_component: -0.435568
    eigen_vector_component: 0.815084
    eigen_vector_component: -0.381993
    relight_filler {
      type: "gaussian"
      std: 0.001
    }
  }
  data_param {
    source: "examples/cifar10/cifar10_train_lmdb"
    batch_size: 100
    backend: LMDB
  }
}
layer {
  name: "conv1"
  type: "Convolution"
  bottom: "data"
  top: "conv1"
  param {
    lr_mult: 1
  }
  param {
    lr_mult: 2
  }
  convolution_param {
    num_output: 32
    pad: 2
    kernel_size: 5
    stride: 1
    weight_filler {
      type: "gaussian"
      std: 0.0001
    }
    bias_filler {
      type: "constant"
    }
  }
}
layer {
  name: "pool1"
  type: "Pooling"
  bottom: "conv1"
  top: "pool1"
  pooling_param {
    pool: MAX
    kernel_size: 3
    stride: 2
  }
}
layer {
  name: "relu1"
  type: "ReLU"
  bottom: "pool1"
  top: "pool1"
}
layer {
  name: "conv2"
  type: "Convolution"
  bottom: "pool1"
  top: "conv2"
  param {
    lr_mult: 1
  }
  param {
    lr_mult: 2
  }
  convolution_param {
    num_output: 32
    pad: 2
    kernel_size: 5
    stride: 1
    weight_filler {
      type: "gaussian"
      std: 0.01
    }
    bias_filler {
      type: "constant"
    }
  }
}
layer {
  name: "relu2"
  type: "ReLU"
  bottom: "conv2"
  top: "conv2"
}
layer {
  name: "pool2"
  type: "Pooling"
  bottom: "conv2"
  top: "pool2"
  pooling_param {
    pool: AVE
    kernel_size: 3
    stride: 2
  }
}
layer {
  name: "conv3"
  type: "Convolution"
  bottom: "pool2"
  top: "conv3"
  param {
    lr_mult: 1
  }
  param {
    lr_mult: 2
  }
  convolution_param {
    num_output: 64
    pad: 2
    kernel_size: 5
    stride: 1
    weight_filler {
      type: "gaussian"
      std: 0.01
    }
    bias_filler {
      type: "constant"
    }
  }
}
layer {
  name: "relu3"
  type: "ReLU"
  bottom: "conv3"
  top: "conv3"
}
layer {
  name: "pool3"
  type: "Pooling"
  bottom: "conv3"
  top: "pool3"
  pooling_param {
    pool: AVE
    kernel_size: 3
    stride: 2
  }
}
layer {
  name: "ip1"
  type: "InnerProduct"
  bottom: "pool3"
  top: "ip1"
  param {
    lr_mult: 1
  }
  param {
    lr_mult: 2
  }
  inner_product_param {
    num_output: 64
    weight_filler {
      type: "gaussian"
      std: 0.1
    }
    bias_filler {
      type: "constant"
    }
  }
}
layer {
  name: "ip2"
  type: "InnerProduct"
  bottom: "ip1"
  top: "ip2"
  param {
    lr_mult: 1
  }
  param {
    lr_mult: 2
  }
  inner_product_param {
    num_output: 10
    weight_filler {
      type: "gaussian"
      std: 0.1
    }
    bias_filler {
      type: "constant"
    }
  }
}
layer {
  name: "loss"
  type: "SoftmaxWithLoss"
  bottom: "ip2"
  bottom: "label"
  top: "loss"
}
I0608 22:40:09.743288  6656 net.cpp:67] Memory required for data: 0
I0608 22:40:09.743384  6656 layer_factory.hpp:74] Creating layer cifar
I0608 22:40:09.743423  6656 net.cpp:90] Creating Layer cifar
I0608 22:40:09.743438  6656 net.cpp:368] cifar -> data
I0608 22:40:09.743518  6656 net.cpp:368] cifar -> label
I0608 22:40:09.743561  6656 net.cpp:120] Setting up cifar
I0608 22:40:09.743579  6656 data_transformer.cpp:22] Loading mean file from: examples/cifar10/mean.binaryproto
I0608 22:40:09.744153  6656 db.cpp:34] Opened lmdb examples/cifar10/cifar10_train_lmdb
I0608 22:40:09.744217  6656 data_layer.cpp:52] output data size: 100,3,32,32
I0608 22:40:09.744535  6656 base_data_layer.cpp:42] Initializing prefetch
I0608 22:40:09.744642  6656 base_data_layer.cpp:44] Prefetch initialized.
I0608 22:40:09.744681  6656 net.cpp:127] Top shape: 100 3 32 32 (307200)
I0608 22:40:09.744686  6656 net.cpp:127] Top shape: 100 (100)
I0608 22:40:09.744699  6656 net.cpp:133] Memory required for data: 1229200
I0608 22:40:09.744705  6656 layer_factory.hpp:74] Creating layer conv1
I0608 22:40:09.744735  6656 net.cpp:90] Creating Layer conv1
I0608 22:40:09.744745  6656 net.cpp:410] conv1 <- data
I0608 22:40:09.744767  6656 net.cpp:368] conv1 -> conv1
I0608 22:40:09.744792  6656 net.cpp:120] Setting up conv1
I0608 22:40:09.745046  6656 net.cpp:127] Top shape: 100 32 32 32 (3276800)
I0608 22:40:09.745051  6656 net.cpp:133] Memory required for data: 14336400
I0608 22:40:09.745082  6656 layer_factory.hpp:74] Creating layer pool1
I0608 22:40:09.745111  6656 net.cpp:90] Creating Layer pool1
I0608 22:40:09.745116  6656 net.cpp:410] pool1 <- conv1
I0608 22:40:09.745129  6656 net.cpp:368] pool1 -> pool1
I0608 22:40:09.745143  6656 net.cpp:120] Setting up pool1
I0608 22:40:09.745163  6656 net.cpp:127] Top shape: 100 32 16 16 (819200)
I0608 22:40:09.745167  6656 net.cpp:133] Memory required for data: 17613200
I0608 22:40:09.745170  6656 layer_factory.hpp:74] Creating layer relu1
I0608 22:40:09.745184  6656 net.cpp:90] Creating Layer relu1
I0608 22:40:09.745193  6656 net.cpp:410] relu1 <- pool1
I0608 22:40:09.745206  6656 net.cpp:357] relu1 -> pool1 (in-place)
I0608 22:40:09.745215  6656 net.cpp:120] Setting up relu1
I0608 22:40:09.745221  6656 net.cpp:127] Top shape: 100 32 16 16 (819200)
I0608 22:40:09.745223  6656 net.cpp:133] Memory required for data: 20890000
I0608 22:40:09.745226  6656 layer_factory.hpp:74] Creating layer conv2
I0608 22:40:09.745240  6656 net.cpp:90] Creating Layer conv2
I0608 22:40:09.745245  6656 net.cpp:410] conv2 <- pool1
I0608 22:40:09.745257  6656 net.cpp:368] conv2 -> conv2
I0608 22:40:09.745271  6656 net.cpp:120] Setting up conv2
I0608 22:40:09.747244  6656 net.cpp:127] Top shape: 100 32 16 16 (819200)
I0608 22:40:09.747251  6656 net.cpp:133] Memory required for data: 24166800
I0608 22:40:09.747262  6656 layer_factory.hpp:74] Creating layer relu2
I0608 22:40:09.747285  6656 net.cpp:90] Creating Layer relu2
I0608 22:40:09.747289  6656 net.cpp:410] relu2 <- conv2
I0608 22:40:09.747299  6656 net.cpp:357] relu2 -> conv2 (in-place)
I0608 22:40:09.747308  6656 net.cpp:120] Setting up relu2
I0608 22:40:09.747313  6656 net.cpp:127] Top shape: 100 32 16 16 (819200)
I0608 22:40:09.747315  6656 net.cpp:133] Memory required for data: 27443600
I0608 22:40:09.747319  6656 layer_factory.hpp:74] Creating layer pool2
I0608 22:40:09.747326  6656 net.cpp:90] Creating Layer pool2
I0608 22:40:09.747330  6656 net.cpp:410] pool2 <- conv2
I0608 22:40:09.747340  6656 net.cpp:368] pool2 -> pool2
I0608 22:40:09.747349  6656 net.cpp:120] Setting up pool2
I0608 22:40:09.747361  6656 net.cpp:127] Top shape: 100 32 8 8 (204800)
I0608 22:40:09.747364  6656 net.cpp:133] Memory required for data: 28262800
I0608 22:40:09.747367  6656 layer_factory.hpp:74] Creating layer conv3
I0608 22:40:09.747378  6656 net.cpp:90] Creating Layer conv3
I0608 22:40:09.747383  6656 net.cpp:410] conv3 <- pool2
I0608 22:40:09.747396  6656 net.cpp:368] conv3 -> conv3
I0608 22:40:09.747408  6656 net.cpp:120] Setting up conv3
I0608 22:40:09.751225  6656 net.cpp:127] Top shape: 100 64 8 8 (409600)
I0608 22:40:09.751256  6656 net.cpp:133] Memory required for data: 29901200
I0608 22:40:09.751291  6656 layer_factory.hpp:74] Creating layer relu3
I0608 22:40:09.751317  6656 net.cpp:90] Creating Layer relu3
I0608 22:40:09.751325  6656 net.cpp:410] relu3 <- conv3
I0608 22:40:09.751341  6656 net.cpp:357] relu3 -> conv3 (in-place)
I0608 22:40:09.751351  6656 net.cpp:120] Setting up relu3
I0608 22:40:09.751358  6656 net.cpp:127] Top shape: 100 64 8 8 (409600)
I0608 22:40:09.751360  6656 net.cpp:133] Memory required for data: 31539600
I0608 22:40:09.751363  6656 layer_factory.hpp:74] Creating layer pool3
I0608 22:40:09.751375  6656 net.cpp:90] Creating Layer pool3
I0608 22:40:09.751379  6656 net.cpp:410] pool3 <- conv3
I0608 22:40:09.751389  6656 net.cpp:368] pool3 -> pool3
I0608 22:40:09.751400  6656 net.cpp:120] Setting up pool3
I0608 22:40:09.751412  6656 net.cpp:127] Top shape: 100 64 4 4 (102400)
I0608 22:40:09.751415  6656 net.cpp:133] Memory required for data: 31949200
I0608 22:40:09.751420  6656 layer_factory.hpp:74] Creating layer ip1
I0608 22:40:09.751436  6656 net.cpp:90] Creating Layer ip1
I0608 22:40:09.751441  6656 net.cpp:410] ip1 <- pool3
I0608 22:40:09.751452  6656 net.cpp:368] ip1 -> ip1
I0608 22:40:09.751467  6656 net.cpp:120] Setting up ip1
I0608 22:40:09.756991  6656 net.cpp:127] Top shape: 100 64 (6400)
I0608 22:40:09.757010  6656 net.cpp:133] Memory required for data: 31974800
I0608 22:40:09.757043  6656 layer_factory.hpp:74] Creating layer ip2
I0608 22:40:09.757081  6656 net.cpp:90] Creating Layer ip2
I0608 22:40:09.757097  6656 net.cpp:410] ip2 <- ip1
I0608 22:40:09.757130  6656 net.cpp:368] ip2 -> ip2
I0608 22:40:09.757153  6656 net.cpp:120] Setting up ip2
I0608 22:40:09.757236  6656 net.cpp:127] Top shape: 100 10 (1000)
I0608 22:40:09.757252  6656 net.cpp:133] Memory required for data: 31978800
I0608 22:40:09.757282  6656 layer_factory.hpp:74] Creating layer loss
I0608 22:40:09.757300  6656 net.cpp:90] Creating Layer loss
I0608 22:40:09.757307  6656 net.cpp:410] loss <- ip2
I0608 22:40:09.757315  6656 net.cpp:410] loss <- label
I0608 22:40:09.757326  6656 net.cpp:368] loss -> loss
I0608 22:40:09.757338  6656 net.cpp:120] Setting up loss
…
I0608 22:40:09.757879  6656 solver.cpp:154] Creating test net (#0) specified by net file: examples/cifar10/cifar10_quick_train_test.prototxt
I0608 22:40:09.757940  6656 net.cpp:287] The NetState phase (1) differed from the phase (0) specified by a rule in layer cifar
I0608 22:40:09.758072  6656 net.cpp:42] Initializing net from parameters: 
name: "CIFAR10_quick"
state {
  phase: TEST
}
layer {
  name: "cifar"
  type: "Data"
  top: "data"
  top: "label"
  include {
    phase: TEST
  }
  transform_param {
    mean_file: "examples/cifar10/mean.binaryproto"
  }
  data_param {
    source: "examples/cifar10/cifar10_test_lmdb"
    batch_size: 100
    backend: LMDB
  }
}
layer {
  name: "conv1"
  type: "Convolution"
  bottom: "data"
  top: "conv1"
  param {
    lr_mult: 1
  }
  param {
    lr_mult: 2
  }
  convolution_param {
    num_output: 32
    pad: 2
    kernel_size: 5
    stride: 1
    weight_filler {
      type: "gaussian"
      std: 0.0001
    }
    bias_filler {
      type: "constant"
    }
  }
}
layer {
  name: "pool1"
  type: "Pooling"
  bottom: "conv1"
  top: "pool1"
  pooling_param {
    pool: MAX
    kernel_size: 3
    stride: 2
  }
}
layer {
  name: "relu1"
  type: "ReLU"
  bottom: "pool1"
  top: "pool1"
}
layer {
  name: "conv2"
  type: "Convolution"
  bottom: "pool1"
  top: "conv2"
  param {
    lr_mult: 1
  }
  param {
    lr_mult: 2
  }
  convolution_param {
    num_output: 32
    pad: 2
    kernel_size: 5
    stride: 1
    weight_filler {
      type: "gaussian"
      std: 0.01
    }
    bias_filler {
      type: "constant"
    }
  }
}
layer {
  name: "relu2"
  type: "ReLU"
  bottom: "conv2"
  top: "conv2"
}
layer {
  name: "pool2"
  type: "Pooling"
  bottom: "conv2"
  top: "pool2"
  pooling_param {
    pool: AVE
    kernel_size: 3
    stride: 2
  }
}
layer {
  name: "conv3"
  type: "Convolution"
  bottom: "pool2"
  top: "conv3"
  param {
    lr_mult: 1
  }
  param {
    lr_mult: 2
  }
  convolution_param {
    num_output: 64
    pad: 2
    kernel_size: 5
    stride: 1
    weight_filler {
      type: "gaussian"
      std: 0.01
    }
    bias_filler {
      type: "constant"
    }
  }
}
layer {
  name: "relu3"
  type: "ReLU"
  bottom: "conv3"
  top: "conv3"
}
layer {
  name: "pool3"
  type: "Pooling"
  bottom: "conv3"
  top: "pool3"
  pooling_param {
    pool: AVE
    kernel_size: 3
    stride: 2
  }
}
layer {
  name: "ip1"
  type: "InnerProduct"
  bottom: "pool3"
  top: "ip1"
  param {
    lr_mult: 1
  }
  param {
    lr_mult: 2
  }
  inner_product_param {
    num_output: 64
    weight_filler {
      type: "gaussian"
      std: 0.1
    }
    bias_filler {
      type: "constant"
    }
  }
}
layer {
  name: "ip2"
  type: "InnerProduct"
  bottom: "ip1"
  top: "ip2"
  param {
    lr_mult: 1
  }
  param {
    lr_mult: 2
  }
  inner_product_param {
    num_output: 10
    weight_filler {
      type: "gaussian"
      std: 0.1
    }
    bias_filler {
      type: "constant"
    }
  }
}
layer {
  name: "accuracy"
  type: "Accuracy"
  bottom: "ip2"
  bottom: "label"
  top: "accuracy"
  include {
    phase: TEST
  }
}
layer {
  name: "loss"
  type: "SoftmaxWithLoss"
  bottom: "ip2"
  bottom: "label"
  top: "loss"
}
I0608 22:40:09.758254  6656 net.cpp:67] Memory required for data: 0
I0608 22:40:09.758285  6656 layer_factory.hpp:74] Creating layer cifar
I0608 22:40:09.758301  6656 net.cpp:90] Creating Layer cifar
I0608 22:40:09.758306  6656 net.cpp:368] cifar -> data
I0608 22:40:09.758322  6656 net.cpp:368] cifar -> label
I0608 22:40:09.758332  6656 net.cpp:120] Setting up cifar
I0608 22:40:09.758337  6656 data_transformer.cpp:22] Loading mean file from: examples/cifar10/mean.binaryproto
I0608 22:40:09.758486  6656 db.cpp:34] Opened lmdb examples/cifar10/cifar10_test_lmdb
I0608 22:40:09.758510  6656 data_layer.cpp:52] output data size: 100,3,32,32
I0608 22:40:09.758919  6656 base_data_layer.cpp:42] Initializing prefetch
I0608 22:40:09.758961  6656 base_data_layer.cpp:44] Prefetch initialized.
I0608 22:40:09.758970  6656 net.cpp:127] Top shape: 100 3 32 32 (307200)
I0608 22:40:09.758973  6656 net.cpp:127] Top shape: 100 (100)
I0608 22:40:09.758975  6656 net.cpp:133] Memory required for data: 1229200
I0608 22:40:09.758981  6656 layer_factory.hpp:74] Creating layer label_cifar_1_split
I0608 22:40:09.758994  6656 net.cpp:90] Creating Layer label_cifar_1_split
I0608 22:40:09.758999  6656 net.cpp:410] label_cifar_1_split <- label
I0608 22:40:09.759009  6656 net.cpp:368] label_cifar_1_split -> label_cifar_1_split_0
I0608 22:40:09.759033  6656 net.cpp:368] label_cifar_1_split -> label_cifar_1_split_1
I0608 22:40:09.759042  6656 net.cpp:120] Setting up label_cifar_1_split
I0608 22:40:09.759053  6656 net.cpp:127] Top shape: 100 (100)
I0608 22:40:09.759058  6656 net.cpp:127] Top shape: 100 (100)
I0608 22:40:09.759060  6656 net.cpp:133] Memory required for data: 1230000
I0608 22:40:09.759063  6656 layer_factory.hpp:74] Creating layer conv1
I0608 22:40:09.759076  6656 net.cpp:90] Creating Layer conv1
I0608 22:40:09.759081  6656 net.cpp:410] conv1 <- data
I0608 22:40:09.759093  6656 net.cpp:368] conv1 -> conv1
I0608 22:40:09.759105  6656 net.cpp:120] Setting up conv1
I0608 22:40:09.759328  6656 net.cpp:127] Top shape: 100 32 32 32 (3276800)
I0608 22:40:09.759332  6656 net.cpp:133] Memory required for data: 14337200
I0608 22:40:09.759354  6656 layer_factory.hpp:74] Creating layer pool1
I0608 22:40:09.759374  6656 net.cpp:90] Creating Layer pool1
I0608 22:40:09.759379  6656 net.cpp:410] pool1 <- conv1
I0608 22:40:09.759390  6656 net.cpp:368] pool1 -> pool1
I0608 22:40:09.759399  6656 net.cpp:120] Setting up pool1
I0608 22:40:09.759413  6656 net.cpp:127] Top shape: 100 32 16 16 (819200)
I0608 22:40:09.759418  6656 net.cpp:133] Memory required for data: 17614000
I0608 22:40:09.759420  6656 layer_factory.hpp:74] Creating layer relu1
I0608 22:40:09.759441  6656 net.cpp:90] Creating Layer relu1
I0608 22:40:09.759445  6656 net.cpp:410] relu1 <- pool1
I0608 22:40:09.759464  6656 net.cpp:357] relu1 -> pool1 (in-place)
I0608 22:40:09.759472  6656 net.cpp:120] Setting up relu1
I0608 22:40:09.759477  6656 net.cpp:127] Top shape: 100 32 16 16 (819200)
I0608 22:40:09.759479  6656 net.cpp:133] Memory required for data: 20890800
I0608 22:40:09.759482  6656 layer_factory.hpp:74] Creating layer conv2
I0608 22:40:09.759492  6656 net.cpp:90] Creating Layer conv2
I0608 22:40:09.759496  6656 net.cpp:410] conv2 <- pool1
I0608 22:40:09.759506  6656 net.cpp:368] conv2 -> conv2
I0608 22:40:09.759517  6656 net.cpp:120] Setting up conv2
I0608 22:40:09.761443  6656 net.cpp:127] Top shape: 100 32 16 16 (819200)
I0608 22:40:09.761448  6656 net.cpp:133] Memory required for data: 24167600
I0608 22:40:09.761459  6656 layer_factory.hpp:74] Creating layer relu2
I0608 22:40:09.761477  6656 net.cpp:90] Creating Layer relu2
I0608 22:40:09.761482  6656 net.cpp:410] relu2 <- conv2
I0608 22:40:09.761492  6656 net.cpp:357] relu2 -> conv2 (in-place)
I0608 22:40:09.761500  6656 net.cpp:120] Setting up relu2
I0608 22:40:09.761505  6656 net.cpp:127] Top shape: 100 32 16 16 (819200)
I0608 22:40:09.761507  6656 net.cpp:133] Memory required for data: 27444400
I0608 22:40:09.761510  6656 layer_factory.hpp:74] Creating layer pool2
I0608 22:40:09.761518  6656 net.cpp:90] Creating Layer pool2
I0608 22:40:09.761520  6656 net.cpp:410] pool2 <- conv2
I0608 22:40:09.761530  6656 net.cpp:368] pool2 -> pool2
I0608 22:40:09.761538  6656 net.cpp:120] Setting up pool2
I0608 22:40:09.761550  6656 net.cpp:127] Top shape: 100 32 8 8 (204800)
I0608 22:40:09.761554  6656 net.cpp:133] Memory required for data: 28263600
I0608 22:40:09.761556  6656 layer_factory.hpp:74] Creating layer conv3
I0608 22:40:09.761572  6656 net.cpp:90] Creating Layer conv3
I0608 22:40:09.761577  6656 net.cpp:410] conv3 <- pool2
I0608 22:40:09.761591  6656 net.cpp:368] conv3 -> conv3
I0608 22:40:09.761605  6656 net.cpp:120] Setting up conv3
I0608 22:40:09.765395  6656 net.cpp:127] Top shape: 100 64 8 8 (409600)
I0608 22:40:09.765403  6656 net.cpp:133] Memory required for data: 29902000
I0608 22:40:09.765413  6656 layer_factory.hpp:74] Creating layer relu3
I0608 22:40:09.765434  6656 net.cpp:90] Creating Layer relu3
I0608 22:40:09.765439  6656 net.cpp:410] relu3 <- conv3
I0608 22:40:09.765449  6656 net.cpp:357] relu3 -> conv3 (in-place)
I0608 22:40:09.765460  6656 net.cpp:120] Setting up relu3
I0608 22:40:09.765465  6656 net.cpp:127] Top shape: 100 64 8 8 (409600)
I0608 22:40:09.765467  6656 net.cpp:133] Memory required for data: 31540400
I0608 22:40:09.765470  6656 layer_factory.hpp:74] Creating layer pool3
I0608 22:40:09.765491  6656 net.cpp:90] Creating Layer pool3
I0608 22:40:09.765497  6656 net.cpp:410] pool3 <- conv3
I0608 22:40:09.765507  6656 net.cpp:368] pool3 -> pool3
I0608 22:40:09.765517  6656 net.cpp:120] Setting up pool3
I0608 22:40:09.765533  6656 net.cpp:127] Top shape: 100 64 4 4 (102400)
I0608 22:40:09.765537  6656 net.cpp:133] Memory required for data: 31950000
I0608 22:40:09.765539  6656 layer_factory.hpp:74] Creating layer ip1
I0608 22:40:09.765552  6656 net.cpp:90] Creating Layer ip1
I0608 22:40:09.765557  6656 net.cpp:410] ip1 <- pool3
I0608 22:40:09.765569  6656 net.cpp:368] ip1 -> ip1
I0608 22:40:09.765580  6656 net.cpp:120] Setting up ip1
I0608 22:40:09.770716  6656 net.cpp:127] Top shape: 100 64 (6400)
I0608 22:40:09.770727  6656 net.cpp:133] Memory required for data: 31975600
I0608 22:40:09.770740  6656 layer_factory.hpp:74] Creating layer ip2
I0608 22:40:09.770769  6656 net.cpp:90] Creating Layer ip2
I0608 22:40:09.770776  6656 net.cpp:410] ip2 <- ip1
I0608 22:40:09.770803  6656 net.cpp:368] ip2 -> ip2
I0608 22:40:09.770825  6656 net.cpp:120] Setting up ip2
I0608 22:40:09.770943  6656 net.cpp:127] Top shape: 100 10 (1000)
I0608 22:40:09.770951  6656 net.cpp:133] Memory required for data: 31979600
I0608 22:40:09.770982  6656 layer_factory.hpp:74] Creating layer ip2_ip2_0_split
I0608 22:40:09.770998  6656 net.cpp:90] Creating Layer ip2_ip2_0_split
I0608 22:40:09.771004  6656 net.cpp:410] ip2_ip2_0_split <- ip2
I0608 22:40:09.771020  6656 net.cpp:368] ip2_ip2_0_split -> ip2_ip2_0_split_0
I0608 22:40:09.771015  6669 data_layer.cpp:118] Prefetch batch: 2 ms.
I0608 22:40:09.771033  6669 data_layer.cpp:119]      Read time: 0.174 ms.
I0608 22:40:09.771036  6656 net.cpp:368] ip2_ip2_0_split -> ip2_ip2_0_split_1
I0608 22:40:09.771040  6669 data_layer.cpp:120] Transform time: 2.515 ms.
I0608 22:40:09.771049  6656 net.cpp:120] Setting up ip2_ip2_0_split
I0608 22:40:09.771061  6656 net.cpp:127] Top shape: 100 10 (1000)
I0608 22:40:09.771070  6656 net.cpp:127] Top shape: 100 10 (1000)
I0608 22:40:09.771073  6656 net.cpp:133] Memory required for data: 31987600
I0608 22:40:09.771078  6656 layer_factory.hpp:74] Creating layer accuracy
I0608 22:40:09.771095  6656 net.cpp:90] Creating Layer accuracy
I0608 22:40:09.771101  6656 net.cpp:410] accuracy <- ip2_ip2_0_split_0
I0608 22:40:09.771113  6656 net.cpp:410] accuracy <- label_cifar_1_split_0
I0608 22:40:09.771127  6656 net.cpp:368] accuracy -> accuracy
…
