…
    eigen_value: 905.708
    eigen_value: 188.496
    eigen_vector_component: 0.557994
    eigen_vector_component: 0.577479
    eigen_vector_component: 0.595954
    eigen_vector_component: 0.706345
    eigen_vector_component: 0.0464284
    eigen_vector_component: -0.706343
    eigen_vector_component: -0.435568
    eigen_vector_component: 0.815084
    eigen_vector_component: -0.381993
    relight_filler {
      type: "gaussian"
      std: 0.001
    }
  }
  data_param {
    source: "examples/cifar10/cifar10_train_lmdb"
    batch_size: 100
    backend: LMDB
  }
}
layer {
  name: "conv1"
  type: "Convolution"
  bottom: "data"
  top: "conv1"
  param {
    lr_mult: 1
  }
  param {
    lr_mult: 2
  }
  convolution_param {
    num_output: 32
    pad: 2
    kernel_size: 5
    stride: 1
    weight_filler {
      type: "gaussian"
      std: 0.0001
    }
    bias_filler {
      type: "constant"
    }
  }
}
layer {
  name: "pool1"
  type: "Pooling"
  bottom: "conv1"
  top: "pool1"
  pooling_param {
    pool: MAX
    kernel_size: 3
    stride: 2
  }
}
layer {
  name: "relu1"
  type: "ReLU"
  bottom: "pool1"
  top: "pool1"
}
layer {
  name: "conv2"
  type: "Convolution"
  bottom: "pool1"
  top: "conv2"
  param {
    lr_mult: 1
  }
  param {
    lr_mult: 2
  }
  convolution_param {
    num_output: 32
    pad: 2
    kernel_size: 5
    stride: 1
    weight_filler {
      type: "gaussian"
      std: 0.01
    }
    bias_filler {
      type: "constant"
    }
  }
}
layer {
  name: "relu2"
  type: "ReLU"
  bottom: "conv2"
  top: "conv2"
}
layer {
  name: "pool2"
  type: "Pooling"
  bottom: "conv2"
  top: "pool2"
  pooling_param {
    pool: AVE
    kernel_size: 3
    stride: 2
  }
}
layer {
  name: "conv3"
  type: "Convolution"
  bottom: "pool2"
  top: "conv3"
  param {
    lr_mult: 1
  }
  param {
    lr_mult: 2
  }
  convolution_param {
    num_output: 64
    pad: 2
    kernel_size: 5
    stride: 1
    weight_filler {
      type: "gaussian"
      std: 0.01
    }
    bias_filler {
      type: "constant"
    }
  }
}
layer {
  name: "relu3"
  type: "ReLU"
  bottom: "conv3"
  top: "conv3"
}
layer {
  name: "pool3"
  type: "Pooling"
  bottom: "conv3"
  top: "pool3"
  pooling_param {
    pool: AVE
    kernel_size: 3
    stride: 2
  }
}
layer {
  name: "ip1"
  type: "InnerProduct"
  bottom: "pool3"
  top: "ip1"
  param {
    lr_mult: 1
  }
  param {
    lr_mult: 2
  }
  inner_product_param {
    num_output: 64
    weight_filler {
      type: "gaussian"
      std: 0.1
    }
    bias_filler {
      type: "constant"
    }
  }
}
layer {
  name: "ip2"
  type: "InnerProduct"
  bottom: "ip1"
  top: "ip2"
  param {
    lr_mult: 1
  }
  param {
    lr_mult: 2
  }
  inner_product_param {
    num_output: 10
    weight_filler {
      type: "gaussian"
      std: 0.1
    }
    bias_filler {
      type: "constant"
    }
  }
}
layer {
  name: "loss"
  type: "SoftmaxWithLoss"
  bottom: "ip2"
  bottom: "label"
  top: "loss"
}
I0608 22:33:56.242967   907 net.cpp:67] Memory required for data: 0
I0608 22:33:56.243062   907 layer_factory.hpp:74] Creating layer cifar
I0608 22:33:56.243099   907 net.cpp:90] Creating Layer cifar
I0608 22:33:56.243113   907 net.cpp:368] cifar -> data
I0608 22:33:56.243183   907 net.cpp:368] cifar -> label
I0608 22:33:56.243212   907 net.cpp:120] Setting up cifar
I0608 22:33:56.243222   907 data_transformer.cpp:22] Loading mean file from: examples/cifar10/mean.binaryproto
I0608 22:33:56.243793   907 db.cpp:34] Opened lmdb examples/cifar10/cifar10_train_lmdb
I0608 22:33:56.243855   907 data_layer.cpp:52] output data size: 100,3,32,32
I0608 22:33:56.244170   907 base_data_layer.cpp:42] Initializing prefetch
I0608 22:33:56.244262   907 base_data_layer.cpp:44] Prefetch initialized.
I0608 22:33:56.244316   907 net.cpp:127] Top shape: 100 3 32 32 (307200)
I0608 22:33:56.244321   907 net.cpp:127] Top shape: 100 (100)
I0608 22:33:56.244334   907 net.cpp:133] Memory required for data: 1229200
I0608 22:33:56.244341   907 layer_factory.hpp:74] Creating layer conv1
I0608 22:33:56.244370   907 net.cpp:90] Creating Layer conv1
I0608 22:33:56.244379   907 net.cpp:410] conv1 <- data
I0608 22:33:56.244402   907 net.cpp:368] conv1 -> conv1
I0608 22:33:56.244426   907 net.cpp:120] Setting up conv1
I0608 22:33:56.244681   907 net.cpp:127] Top shape: 100 32 32 32 (3276800)
I0608 22:33:56.244685   907 net.cpp:133] Memory required for data: 14336400
I0608 22:33:56.244726   907 layer_factory.hpp:74] Creating layer pool1
I0608 22:33:56.244741   907 net.cpp:90] Creating Layer pool1
I0608 22:33:56.244747   907 net.cpp:410] pool1 <- conv1
I0608 22:33:56.244760   907 net.cpp:368] pool1 -> pool1
I0608 22:33:56.244771   907 net.cpp:120] Setting up pool1
I0608 22:33:56.244791   907 net.cpp:127] Top shape: 100 32 16 16 (819200)
I0608 22:33:56.244793   907 net.cpp:133] Memory required for data: 17613200
I0608 22:33:56.244797   907 layer_factory.hpp:74] Creating layer relu1
I0608 22:33:56.244817   907 net.cpp:90] Creating Layer relu1
I0608 22:33:56.244830   907 net.cpp:410] relu1 <- pool1
I0608 22:33:56.244839   907 net.cpp:357] relu1 -> pool1 (in-place)
I0608 22:33:56.244845   907 net.cpp:120] Setting up relu1
I0608 22:33:56.244850   907 net.cpp:127] Top shape: 100 32 16 16 (819200)
I0608 22:33:56.244853   907 net.cpp:133] Memory required for data: 20890000
I0608 22:33:56.244855   907 layer_factory.hpp:74] Creating layer conv2
I0608 22:33:56.244868   907 net.cpp:90] Creating Layer conv2
I0608 22:33:56.244874   907 net.cpp:410] conv2 <- pool1
I0608 22:33:56.244885   907 net.cpp:368] conv2 -> conv2
I0608 22:33:56.244899   907 net.cpp:120] Setting up conv2
I0608 22:33:56.246857   907 net.cpp:127] Top shape: 100 32 16 16 (819200)
I0608 22:33:56.246867   907 net.cpp:133] Memory required for data: 24166800
I0608 22:33:56.246892   907 layer_factory.hpp:74] Creating layer relu2
I0608 22:33:56.246914   907 net.cpp:90] Creating Layer relu2
I0608 22:33:56.246922   907 net.cpp:410] relu2 <- conv2
I0608 22:33:56.246932   907 net.cpp:357] relu2 -> conv2 (in-place)
I0608 22:33:56.246942   907 net.cpp:120] Setting up relu2
I0608 22:33:56.246947   907 net.cpp:127] Top shape: 100 32 16 16 (819200)
I0608 22:33:56.246949   907 net.cpp:133] Memory required for data: 27443600
I0608 22:33:56.246953   907 layer_factory.hpp:74] Creating layer pool2
I0608 22:33:56.246963   907 net.cpp:90] Creating Layer pool2
I0608 22:33:56.246965   907 net.cpp:410] pool2 <- conv2
I0608 22:33:56.246974   907 net.cpp:368] pool2 -> pool2
I0608 22:33:56.246984   907 net.cpp:120] Setting up pool2
I0608 22:33:56.246995   907 net.cpp:127] Top shape: 100 32 8 8 (204800)
I0608 22:33:56.246999   907 net.cpp:133] Memory required for data: 28262800
I0608 22:33:56.247002   907 layer_factory.hpp:74] Creating layer conv3
I0608 22:33:56.247014   907 net.cpp:90] Creating Layer conv3
I0608 22:33:56.247020   907 net.cpp:410] conv3 <- pool2
I0608 22:33:56.247031   907 net.cpp:368] conv3 -> conv3
I0608 22:33:56.247042   907 net.cpp:120] Setting up conv3
I0608 22:33:56.250872   907 net.cpp:127] Top shape: 100 64 8 8 (409600)
I0608 22:33:56.250907   907 net.cpp:133] Memory required for data: 29901200
I0608 22:33:56.250947   907 layer_factory.hpp:74] Creating layer relu3
I0608 22:33:56.250974   907 net.cpp:90] Creating Layer relu3
I0608 22:33:56.250984   907 net.cpp:410] relu3 <- conv3
I0608 22:33:56.251000   907 net.cpp:357] relu3 -> conv3 (in-place)
I0608 22:33:56.251011   907 net.cpp:120] Setting up relu3
I0608 22:33:56.251019   907 net.cpp:127] Top shape: 100 64 8 8 (409600)
I0608 22:33:56.251020   907 net.cpp:133] Memory required for data: 31539600
I0608 22:33:56.251024   907 layer_factory.hpp:74] Creating layer pool3
I0608 22:33:56.251036   907 net.cpp:90] Creating Layer pool3
I0608 22:33:56.251041   907 net.cpp:410] pool3 <- conv3
I0608 22:33:56.251051   907 net.cpp:368] pool3 -> pool3
I0608 22:33:56.251061   907 net.cpp:120] Setting up pool3
I0608 22:33:56.251075   907 net.cpp:127] Top shape: 100 64 4 4 (102400)
I0608 22:33:56.251080   907 net.cpp:133] Memory required for data: 31949200
I0608 22:33:56.251082   907 layer_factory.hpp:74] Creating layer ip1
I0608 22:33:56.251098   907 net.cpp:90] Creating Layer ip1
I0608 22:33:56.251103   907 net.cpp:410] ip1 <- pool3
I0608 22:33:56.251114   907 net.cpp:368] ip1 -> ip1
I0608 22:33:56.251128   907 net.cpp:120] Setting up ip1
I0608 22:33:56.256059   907 net.cpp:127] Top shape: 100 64 (6400)
I0608 22:33:56.256086   907 net.cpp:133] Memory required for data: 31974800
I0608 22:33:56.256115   907 layer_factory.hpp:74] Creating layer ip2
I0608 22:33:56.256145   907 net.cpp:90] Creating Layer ip2
I0608 22:33:56.256155   907 net.cpp:410] ip2 <- ip1
I0608 22:33:56.256175   907 net.cpp:368] ip2 -> ip2
I0608 22:33:56.256191   907 net.cpp:120] Setting up ip2
I0608 22:33:56.256288   907 net.cpp:127] Top shape: 100 10 (1000)
I0608 22:33:56.256292   907 net.cpp:133] Memory required for data: 31978800
I0608 22:33:56.256316   907 layer_factory.hpp:74] Creating layer loss
I0608 22:33:56.256330   907 net.cpp:90] Creating Layer loss
I0608 22:33:56.256338   907 net.cpp:410] loss <- ip2
I0608 22:33:56.256350   907 net.cpp:410] loss <- label
I0608 22:33:56.256361   907 net.cpp:368] loss -> loss
I0608 22:33:56.256371   907 net.cpp:120] Setting up loss
…
I0608 22:33:56.256891   907 solver.cpp:154] Creating test net (#0) specified by net file: examples/cifar10/cifar10_quick_train_test.prototxt
I0608 22:33:56.256940   907 net.cpp:287] The NetState phase (1) differed from the phase (0) specified by a rule in layer cifar
I0608 22:33:56.257045   907 net.cpp:42] Initializing net from parameters: 
name: "CIFAR10_quick"
state {
  phase: TEST
}
layer {
  name: "cifar"
  type: "Data"
  top: "data"
  top: "label"
  include {
    phase: TEST
  }
  transform_param {
    mean_file: "examples/cifar10/mean.binaryproto"
  }
  data_param {
    source: "examples/cifar10/cifar10_test_lmdb"
    batch_size: 100
    backend: LMDB
  }
}
layer {
  name: "conv1"
  type: "Convolution"
  bottom: "data"
  top: "conv1"
  param {
    lr_mult: 1
  }
  param {
    lr_mult: 2
  }
  convolution_param {
    num_output: 32
    pad: 2
    kernel_size: 5
    stride: 1
    weight_filler {
      type: "gaussian"
      std: 0.0001
    }
    bias_filler {
      type: "constant"
    }
  }
}
layer {
  name: "pool1"
  type: "Pooling"
  bottom: "conv1"
  top: "pool1"
  pooling_param {
    pool: MAX
    kernel_size: 3
    stride: 2
  }
}
layer {
  name: "relu1"
  type: "ReLU"
  bottom: "pool1"
  top: "pool1"
}
layer {
  name: "conv2"
  type: "Convolution"
  bottom: "pool1"
  top: "conv2"
  param {
    lr_mult: 1
  }
  param {
    lr_mult: 2
  }
  convolution_param {
    num_output: 32
    pad: 2
    kernel_size: 5
    stride: 1
    weight_filler {
      type: "gaussian"
      std: 0.01
    }
    bias_filler {
      type: "constant"
    }
  }
}
layer {
  name: "relu2"
  type: "ReLU"
  bottom: "conv2"
  top: "conv2"
}
layer {
  name: "pool2"
  type: "Pooling"
  bottom: "conv2"
  top: "pool2"
  pooling_param {
    pool: AVE
    kernel_size: 3
    stride: 2
  }
}
layer {
  name: "conv3"
  type: "Convolution"
  bottom: "pool2"
  top: "conv3"
  param {
    lr_mult: 1
  }
  param {
    lr_mult: 2
  }
  convolution_param {
    num_output: 64
    pad: 2
    kernel_size: 5
    stride: 1
    weight_filler {
      type: "gaussian"
      std: 0.01
    }
    bias_filler {
      type: "constant"
    }
  }
}
layer {
  name: "relu3"
  type: "ReLU"
  bottom: "conv3"
  top: "conv3"
}
layer {
  name: "pool3"
  type: "Pooling"
  bottom: "conv3"
  top: "pool3"
  pooling_param {
    pool: AVE
    kernel_size: 3
    stride: 2
  }
}
layer {
  name: "ip1"
  type: "InnerProduct"
  bottom: "pool3"
  top: "ip1"
  param {
    lr_mult: 1
  }
  param {
    lr_mult: 2
  }
  inner_product_param {
    num_output: 64
    weight_filler {
      type: "gaussian"
      std: 0.1
    }
    bias_filler {
      type: "constant"
    }
  }
}
layer {
  name: "ip2"
  type: "InnerProduct"
  bottom: "ip1"
  top: "ip2"
  param {
    lr_mult: 1
  }
  param {
    lr_mult: 2
  }
  inner_product_param {
    num_output: 10
    weight_filler {
      type: "gaussian"
      std: 0.1
    }
    bias_filler {
      type: "constant"
    }
  }
}
layer {
  name: "accuracy"
  type: "Accuracy"
  bottom: "ip2"
  bottom: "label"
  top: "accuracy"
  include {
    phase: TEST
  }
}
layer {
  name: "loss"
  type: "SoftmaxWithLoss"
  bottom: "ip2"
  bottom: "label"
  top: "loss"
}
I0608 22:33:56.257202   907 net.cpp:67] Memory required for data: 0
I0608 22:33:56.257231   907 layer_factory.hpp:74] Creating layer cifar
I0608 22:33:56.257246   907 net.cpp:90] Creating Layer cifar
I0608 22:33:56.257252   907 net.cpp:368] cifar -> data
I0608 22:33:56.257268   907 net.cpp:368] cifar -> label
I0608 22:33:56.257278   907 net.cpp:120] Setting up cifar
I0608 22:33:56.257283   907 data_transformer.cpp:22] Loading mean file from: examples/cifar10/mean.binaryproto
I0608 22:33:56.257437   907 db.cpp:34] Opened lmdb examples/cifar10/cifar10_test_lmdb
I0608 22:33:56.257462   907 data_layer.cpp:52] output data size: 100,3,32,32
I0608 22:33:56.257871   907 base_data_layer.cpp:42] Initializing prefetch
I0608 22:33:56.257901   907 base_data_layer.cpp:44] Prefetch initialized.
I0608 22:33:56.257910   907 net.cpp:127] Top shape: 100 3 32 32 (307200)
I0608 22:33:56.257915   907 net.cpp:127] Top shape: 100 (100)
I0608 22:33:56.257916   907 net.cpp:133] Memory required for data: 1229200
I0608 22:33:56.257922   907 layer_factory.hpp:74] Creating layer label_cifar_1_split
I0608 22:33:56.257936   907 net.cpp:90] Creating Layer label_cifar_1_split
I0608 22:33:56.257941   907 net.cpp:410] label_cifar_1_split <- label
I0608 22:33:56.257951   907 net.cpp:368] label_cifar_1_split -> label_cifar_1_split_0
I0608 22:33:56.257974   907 net.cpp:368] label_cifar_1_split -> label_cifar_1_split_1
I0608 22:33:56.257983   907 net.cpp:120] Setting up label_cifar_1_split
I0608 22:33:56.258028   907 net.cpp:127] Top shape: 100 (100)
I0608 22:33:56.258033   907 net.cpp:127] Top shape: 100 (100)
I0608 22:33:56.258035   907 net.cpp:133] Memory required for data: 1230000
I0608 22:33:56.258038   907 layer_factory.hpp:74] Creating layer conv1
I0608 22:33:56.258054   907 net.cpp:90] Creating Layer conv1
I0608 22:33:56.258059   907 net.cpp:410] conv1 <- data
I0608 22:33:56.258071   907 net.cpp:368] conv1 -> conv1
I0608 22:33:56.258083   907 net.cpp:120] Setting up conv1
I0608 22:33:56.258302   907 net.cpp:127] Top shape: 100 32 32 32 (3276800)
I0608 22:33:56.258307   907 net.cpp:133] Memory required for data: 14337200
I0608 22:33:56.258319   907 layer_factory.hpp:74] Creating layer pool1
I0608 22:33:56.258339   907 net.cpp:90] Creating Layer pool1
I0608 22:33:56.258344   907 net.cpp:410] pool1 <- conv1
I0608 22:33:56.258355   907 net.cpp:368] pool1 -> pool1
I0608 22:33:56.258364   907 net.cpp:120] Setting up pool1
I0608 22:33:56.258378   907 net.cpp:127] Top shape: 100 32 16 16 (819200)
I0608 22:33:56.258381   907 net.cpp:133] Memory required for data: 17614000
I0608 22:33:56.258384   907 layer_factory.hpp:74] Creating layer relu1
I0608 22:33:56.258395   907 net.cpp:90] Creating Layer relu1
I0608 22:33:56.258399   907 net.cpp:410] relu1 <- pool1
I0608 22:33:56.258409   907 net.cpp:357] relu1 -> pool1 (in-place)
I0608 22:33:56.258414   907 net.cpp:120] Setting up relu1
I0608 22:33:56.258419   907 net.cpp:127] Top shape: 100 32 16 16 (819200)
I0608 22:33:56.258421   907 net.cpp:133] Memory required for data: 20890800
I0608 22:33:56.258424   907 layer_factory.hpp:74] Creating layer conv2
I0608 22:33:56.258433   907 net.cpp:90] Creating Layer conv2
I0608 22:33:56.258437   907 net.cpp:410] conv2 <- pool1
I0608 22:33:56.258446   907 net.cpp:368] conv2 -> conv2
I0608 22:33:56.258455   907 net.cpp:120] Setting up conv2
I0608 22:33:56.260388   907 net.cpp:127] Top shape: 100 32 16 16 (819200)
I0608 22:33:56.260393   907 net.cpp:133] Memory required for data: 24167600
I0608 22:33:56.260404   907 layer_factory.hpp:74] Creating layer relu2
I0608 22:33:56.260413   907 net.cpp:90] Creating Layer relu2
I0608 22:33:56.260417   907 net.cpp:410] relu2 <- conv2
I0608 22:33:56.260426   907 net.cpp:357] relu2 -> conv2 (in-place)
I0608 22:33:56.260434   907 net.cpp:120] Setting up relu2
I0608 22:33:56.260439   907 net.cpp:127] Top shape: 100 32 16 16 (819200)
I0608 22:33:56.260442   907 net.cpp:133] Memory required for data: 27444400
I0608 22:33:56.260444   907 layer_factory.hpp:74] Creating layer pool2
I0608 22:33:56.260452   907 net.cpp:90] Creating Layer pool2
I0608 22:33:56.260455   907 net.cpp:410] pool2 <- conv2
I0608 22:33:56.260464   907 net.cpp:368] pool2 -> pool2
I0608 22:33:56.260473   907 net.cpp:120] Setting up pool2
I0608 22:33:56.260483   907 net.cpp:127] Top shape: 100 32 8 8 (204800)
I0608 22:33:56.260488   907 net.cpp:133] Memory required for data: 28263600
I0608 22:33:56.260490   907 layer_factory.hpp:74] Creating layer conv3
I0608 22:33:56.260503   907 net.cpp:90] Creating Layer conv3
I0608 22:33:56.260507   907 net.cpp:410] conv3 <- pool2
I0608 22:33:56.260521   907 net.cpp:368] conv3 -> conv3
I0608 22:33:56.260535   907 net.cpp:120] Setting up conv3
I0608 22:33:56.264390   907 net.cpp:127] Top shape: 100 64 8 8 (409600)
I0608 22:33:56.264399   907 net.cpp:133] Memory required for data: 29902000
I0608 22:33:56.264412   907 layer_factory.hpp:74] Creating layer relu3
I0608 22:33:56.264422   907 net.cpp:90] Creating Layer relu3
I0608 22:33:56.264430   907 net.cpp:410] relu3 <- conv3
I0608 22:33:56.264441   907 net.cpp:357] relu3 -> conv3 (in-place)
I0608 22:33:56.264451   907 net.cpp:120] Setting up relu3
I0608 22:33:56.264456   907 net.cpp:127] Top shape: 100 64 8 8 (409600)
I0608 22:33:56.264457   907 net.cpp:133] Memory required for data: 31540400
I0608 22:33:56.264461   907 layer_factory.hpp:74] Creating layer pool3
I0608 22:33:56.264480   907 net.cpp:90] Creating Layer pool3
I0608 22:33:56.264487   907 net.cpp:410] pool3 <- conv3
I0608 22:33:56.264495   907 net.cpp:368] pool3 -> pool3
I0608 22:33:56.264505   907 net.cpp:120] Setting up pool3
I0608 22:33:56.264518   907 net.cpp:127] Top shape: 100 64 4 4 (102400)
I0608 22:33:56.264521   907 net.cpp:133] Memory required for data: 31950000
I0608 22:33:56.264524   907 layer_factory.hpp:74] Creating layer ip1
I0608 22:33:56.264538   907 net.cpp:90] Creating Layer ip1
I0608 22:33:56.264542   907 net.cpp:410] ip1 <- pool3
I0608 22:33:56.264554   907 net.cpp:368] ip1 -> ip1
I0608 22:33:56.264564   907 net.cpp:120] Setting up ip1
I0608 22:33:56.269492   907 net.cpp:127] Top shape: 100 64 (6400)
I0608 22:33:56.269500   907 net.cpp:133] Memory required for data: 31975600
I0608 22:33:56.269510   907 layer_factory.hpp:74] Creating layer ip2
I0608 22:33:56.269522   907 net.cpp:90] Creating Layer ip2
I0608 22:33:56.269528   907 net.cpp:410] ip2 <- ip1
I0608 22:33:56.269543   907 net.cpp:368] ip2 -> ip2
I0608 22:33:56.269562   907 net.cpp:120] Setting up ip2
I0608 22:33:56.269634   907 net.cpp:127] Top shape: 100 10 (1000)
I0608 22:33:56.269637   907 net.cpp:133] Memory required for data: 31979600
I0608 22:33:56.269649   907 layer_factory.hpp:74] Creating layer ip2_ip2_0_split
I0608 22:33:56.269659   907 net.cpp:90] Creating Layer ip2_ip2_0_split
I0608 22:33:56.269662   907 net.cpp:410] ip2_ip2_0_split <- ip2
I0608 22:33:56.269672   907 net.cpp:368] ip2_ip2_0_split -> ip2_ip2_0_split_0
I0608 22:33:56.269682   907 net.cpp:368] ip2_ip2_0_split -> ip2_ip2_0_split_1
I0608 22:33:56.269688   907 net.cpp:120] Setting up ip2_ip2_0_split
I0608 22:33:56.269696   907 net.cpp:127] Top shape: 100 10 (1000)
I0608 22:33:56.269701   907 net.cpp:127] Top shape: 100 10 (1000)
I0608 22:33:56.269702   907 net.cpp:133] Memory required for data: 31987600
I0608 22:33:56.269706   907 layer_factory.hpp:74] Creating layer accuracy
I0608 22:33:56.269716   907 net.cpp:90] Creating Layer accuracy
I0608 22:33:56.269719   907 net.cpp:410] accuracy <- ip2_ip2_0_split_0
I0608 22:33:56.269726   907 net.cpp:410] accuracy <- label_cifar_1_split_0
I0608 22:33:56.269734   907 net.cpp:368] accuracy -> accuracy
…
